…
   "execution_count": 21,
   "metadata": {},
   "outputs": [],
   "source": [
    "model = mlp_classifier(X_train_gs[0].shape,1e-4,0.3)"
   ]
  },
  {
   "cell_type": "code",
   "execution_count": 22,
   "metadata": {},
   "outputs": [
    {
     "name": "stdout",
     "output_type": "stream",
     "text": [
      "Model: \"sequential\"\n",
      "_________________________________________________________________\n",
      "Layer (type)                 Output Shape              Param #   \n",
      "=================================================================\n",
      "dense (Dense)                (None, 32, 32, 102)       204       \n",
      "_________________________________________________________________\n",
      "flatten (Flatten)            (None, 104448)            0         \n",
      "_________________________________________________________________\n",
      "dropout (Dropout)            (None, 104448)            0         \n",
      "_________________________________________________________________\n",
      "dense_1 (Dense)              (None, 30)                3133470   \n",
      "_________________________________________________________________\n",
      "batch_normalization (BatchNo (None, 30)                120       \n",
      "_________________________________________________________________\n",
      "dropout_1 (Dropout)          (None, 30)                0         \n",
      "_________________________________________________________________\n",
      "dense_2 (Dense)              (None, 10)                310       \n",
      "=================================================================\n",
      "Total params: 3,134,104\n",
      "Trainable params: 3,134,044\n",
      "Non-trainable params: 60\n",
      "_________________________________________________________________\n"
     ]
    }
   ],
   "source": [
    "model.summary()"
   ]
  },
  {
   "cell_type": "code",
   "execution_count": 23,
   "metadata": {},
…
    "        tf.keras.layers.Dropout(0.3),\n",
    "        Dense(10, activation='softmax')\n",
    "    ])\n",
    "    return model_conv"
   ]
  },
  {
   "cell_type": "code",
   "execution_count": 71,
   "metadata": {},
   "outputs": [
    {
     "name": "stdout",
     "output_type": "stream",
     "text": [
      "Model: \"sequential_3\"\n",
      "_________________________________________________________________\n",
      "Layer (type)                 Output Shape              Param #   \n",
      "=================================================================\n",
      "conv2d_8 (Conv2D)            (None, 30, 30, 16)        160       \n",
      "_________________________________________________________________\n",
      "max_pooling2d_4 (MaxPooling2 (None, 15, 15, 16)        0         \n",
      "_________________________________________________________________\n",
      "conv2d_9 (Conv2D)            (None, 13, 13, 32)        4640      \n",
      "_________________________________________________________________\n",
      "max_pooling2d_5 (MaxPooling2 (None, 4, 4, 32)          0         \n",
      "_________________________________________________________________\n",
      "batch_normalization_3 (Batch (None, 4, 4, 32)          128       \n",
      "_________________________________________________________________\n",
      "conv2d_10 (Conv2D)           (None, 2, 2, 32)          9248      \n",
      "_________________________________________________________________\n",
      "dropout_6 (Dropout)          (None, 2, 2, 32)          0         \n",
      "_________________________________________________________________\n",
      "flatten_3 (Flatten)          (None, 128)               0         \n",
      "_________________________________________________________________\n",
      "dense_9 (Dense)              (None, 64)                8256      \n",
      "_________________________________________________________________\n",
      "dense_10 (Dense)             (None, 32)                2080      \n",
      "_________________________________________________________________\n",
      "dropout_7 (Dropout)          (None, 32)                0         \n",
      "_________________________________________________________________\n",
      "dense_11 (Dense)             (None, 10)                330       \n",
      "=================================================================\n",
      "Total params: 24,842\n",
      "Trainable params: 24,778\n",
      "Non-trainable params: 64\n",
      "_________________________________________________________________\n"
     ]
    }
   ],
   "source": [
    "model_conv = get_conv_model(input_shape=X_train_gs[0].shape)\n",
    "model_conv.summary()"
   ]
…
